…
 padding =&#39;same&#39;, activation = &#39;relu&#39;), MaxPooling2D(), Conv2D(32, 3, padding = &#39;same&#39;, activation = &#39;relu&#39;), MaxPooling2D(), Conv2D(32, 3, padding = &#39;same&#39;, activation = &#39;relu&#39;), MaxPooling2D(), Dropout(0.2), Flatten(), Dense(128, activation=&#39;relu&#39;), Dropout(0.2), Dense(3, activation = &#39;softmax&#39;) ]) model.summary() . Model: &#34;sequential&#34; _________________________________________________________________ Layer (type) Output Shape Param # ================================================================= rescaling (Rescaling) (None, 192, 192, 3) 0 conv2d (Conv2D) (None, 192, 192, 32) 896 max_pooling2d (MaxPooling2D (None, 96, 96, 32) 0 ) conv2d_1 (Conv2D) (None, 96, 96, 32) 9248 max_pooling2d_1 (MaxPooling (None, 48, 48, 32) 0 2D) conv2d_2 (Conv2D) (None, 48, 48, 32) 9248 max_pooling2d_2 (MaxPooling (None, 24, 24, 32) 0 2D) dropout (Dropout) (None, 24, 24, 32) 0 flatten (Flatten) (None, 18432) 0 dense (Dense) (None, 128) 2359424 dropout_1 (Dropout) (None, 128) 0 dense_1 (Dense) (None, 3) 387 ================================================================= Total params: 2,379,203 Trainable params: 2,379,203 Non-trainable params: 0 _________________________________________________________________ . In order reduce the access speed, we will use buffered prefetching since the images will be stored into the cache before processing those images. . AUTOTUNE = tf.data.experimental.AUTOTUNE 
…
